artificial_intelligence/az_artificial_intelligence/01_deep_Q_learning/Self_Driving_Car/last_brain.pth (torch, 7247 bytes, 12 tensors)

fc1.weight f4 [30, 5]
00000000: beb1 4b3f e685 4b3f 6f02 2fbe be89 3ebf
00000010: c0e2 543f 06f6 be3e fc5e e6bd 80f9 84bd
00000020: 608b 9ebe 2cdb 8dbe be73 86bf 4472 78c0
00000030: e270 c73d c7b7 1a3f 1dfd 3ebf 2a4e 893e
00000040: 5bce e33e f633 29be e630 703e 56c9 823e
00000050: 1ea7 3bbf d817 4c3e f9aa 8fbe b988 12bf
00000060: d59a 623f 705f bbbe 78dd c13d ac71 253e
00000070: 20fb 803c 50b8 0bbe 799a a6bf 4cb3 22be
00000080: 7599 8ebe 8c6c 26bf da13 b63e dde8 e5bd
00000090: 33e5 203f d527 903e 6329 8a3f 0562 1dbf
000000a0: 74a9 81be cb2d e23e 237d 7a3d e2eb 0bbf
000000b0: 9645 873f fcd5 1dbf d4b1 0a3e 23ea 6fbe
000000c0: d18d 51bf b3e0 333f e397 eb3e c479 b33f
000000d0: 7b41 c33d 0a7b 01bf 9ac4 d53e 5a38 193e
000000e0: fc5f 1b3f 315f ac3e ecb7 24be 464f 68be
000000f0: e4cc 5f3e d69a 20bd c9d4 793e 56fd 023f
00000100: f283 7bbf 681c ebc0 5a30 4ec0 237e 6a3e
00000110: 08a1 593d fc0c a4bd 391e 03bf 9411 653f
00000120: c261 67bf 714a 24be 374c 0bbe 6c2a 8ebe
00000130: 809a d6bc d081 6bbd 30cf 083d 4055 23bd
00000140: 4668 ba3e c0b0 8dbe c223 483f a8c1 37bd
00000150: 773d 06be a553 3a3f a117 fb3e b189 69bd
00000160: 4102 313f 8ba4 19bf f1bd 0c3e 06b4 e73e
00000170: 4f6b 3e3f 5639 a13e 8ca1 ba3e 30bd 97be
00000180: d4a6 afbe 5882 273e e21a 4cbd 1bca 11be
00000190: ddc8 5c3d c6c2 44be 39ff 49bc 1942 81bf
000001a0: 819a 3d3f 5ece f13e 72d9 e2be 9744 5fbf
000001b0: 7f36 0e3f 89c3 72be 1fef abbf b68e 74bf
000001c0: 6830 f13e 9860 4c3f 8b88 ddbe 0d83 cf3e
000001d0: 166b 983f 7fb1 aabd a5a9 5dbe 12bc a2be
000001e0: b4b9 02bf c428 373f d576 693d b341 1cbf
000001f0: 7593 173f ee8e 443f 496f a23e 53bb 403f
00000200: 2b72 02be 5b22 573a 3428 c13e 6a31 7c3f
00000210: df85 a6bc 0ebd 393e 7f44 893e 987e 193f
00000220: fad0 043c aae7 0f3f 064b 9abd 1ba5 0bbe
00000230: 07b3 173f 22a2 04bf 7501 173f d2d1 cebc
00000240: 2a37 d6be 734f 163f cee5 553f 2176 e63b
00000250: adfa 8c3e 6f25 cc3e
0.7956809 0.7950119 -0.17090772 -0.7442893 0.83158493 0.37297076 -0.112485856 -0.06492901
-0.3096571 -0.27706277 -1.0504072 -3.8819742 0.097383276 0.6043667 -0.7460497 0.26817447
0.44493374 -0.16523728 0.23456153 0.25544232 -0.73301876 0.1993097 -0.2806013 -0.5723987
0.88517505 -0.3659625 0.0946607 0.16156644 0.015744746 -0.13644528 -1.3015891 -0.15888709
-0.27851453 -0.6500938 0.3556202 -0.11226056 0.6284973 0.2815539 1.079388 -0.6147769
-0.25324595 0.44175562 0.061154496 -0.54656804 1.0568111 -0.6165464 0.13544399 -0.2342916
-0.8185702 0.7026474 0.46014318 1.4021535 0.09533974 -0.5057837 0.41751558 0.14962903
0.60693336 0.33666375 -0.16085786 -0.2268649 0.21855503 -0.039210163 0.24397577 0.5116781
-0.9824821 -7.3472176 -3.2217011 0.2289968 0.053132087 -0.08010289 -0.5121799 0.8947995
-0.9038354 -0.16044022 -0.13603292 -0.2776674 -0.026196718 -0.057496846 0.033400714 -0.039876223
0.3640768 -0.27673912 0.7817956 -0.04486242 -0.13109384 0.7278388 0.49041465 -0.05701608
0.69144064 -0.600167 0.13744332 0.45254534 0.7438249 0.31489056 0.36451375 -0.29636526
-0.34306967 0.16358316 -0.049830325 -0.14237253 0.053902496 -0.19214925 -0.012328916 -1.0098296
0.7406388 0.47227758 -0.44306523 -0.87214035 0.55551904 -0.23707403 -1.3432349 -0.9553026
0.47107244 0.7983489 -0.43268237 0.4052967 1.190768 -0.08334636 -0.21646746 -0.3178411
-0.5106461 0.7154658 0.056998093 -0.6103775 0.59209377 0.76780593 0.3172553 0.75285834
-0.12738864 0.00082067185 0.37725985 0.985129 -0.020327507 0.18138525 0.2681007 0.5995879
0.0081064645 0.56212866 -0.07533841 -0.13637201 0.5925755 -0.51809895 0.589866 -0.025246534
-0.41838962 0.5871498 0.8355378 0.007033125 0.27535 0.3987231

fc1.bias f4 [30]
00000000: 3f22 003e 31f1 d7be 9f8a f5be 634b b03e
00000010: c4a6 a03e 4c12 d1be 1e8f 413f b8f2 0abf
00000020: 4ff2 01bf 17db e5be 66d3 32bf e11f a43e
00000030: 4242 823d 765d 793e e1c1 0a3f 4c77 c5be
00000040: 431a 003f d380 9c3e 4249 7d3e d523 babe
00000050: d33f 583f 4269 f83e 9c91 083b fba6 cf3e
00000060: d212 05bf e860 b13e 869a 9e3e d174 3c3e
00000070: e5c4 433e 289c 7f3e
0.12513064 -0.42176202 -0.47957322 0.34432516 0.31377232 -0.40834272 0.75609004 -0.5427661
-0.5076036 -0.44893715 -0.6985382 0.32055572 0.06360294 0.24352059 0.54202086 -0.3856758
0.5004007 0.30567035 0.24734977 -0.36355463 0.8447239 0.48517805 0.0020838743 0.40557083
-0.5198184 0.34644246 0.30977267 0.18403937 0.19118078 0.24961913

fc2.weight f4 [3, 30]
00000000: 5190 223e 92e0 39be aed3 c2be e72a a5be
00000010: 0b9f e5bc 4666 2f3e ead1 debd 115a 13bf
00000020: f312 adbd 6d3f c5bf 8c9b e13e a0e9 c8be
00000030: bcc6 adbe 50b8 f33e 2e53 e03a 58b3 f3bc
00000040: c332 66be b70c f8be 4bda efbd f085 fe3c
00000050: 33bf 583e 9c19 c33e ca96 393f 53fa 88be
00000060: 08ca 43be 0d4b e6be 7f08 e6be ef27 49be
00000070: f254 adbe 66ca b9be 023d 5ebf 1010 193e
00000080: d7e1 adbf 6964 49be bfa7 56bf f303 3abe
00000090: e767 463f 562a 2dbf 8ddb a3bd 4bc2 acbf
000000a0: d6db 0740 8caa 4bbe 9f5d e0be 958b 863f
000000b0: 570f 663e 206c 253e 388f 09bd f4f5 efbe
000000c0: f792 43be f89a 52bd f4f7 793f 99d7 0b3f
000000d0: c991 883f 8fa8 81bf 42e7 6dbf 8e5f 23be
000000e0: d7a0 31bf b5fb bdbd a8a7 55be 1635 cbbe
000000f0: 72d9 a33d 0073 d5ba 8c88 abbf 1634 94bd
00000100: 9e23 82be 64e5 183e 76b5 343f 2fdc 48bf
00000110: 09ad 8dbf f185 1bbf b224 033f e13d 59be
00000120: 00d8 6fbf e044 813f 1d40 673f 9414 92bd
00000130: edfd d6be ff7d d83d 6cd6 eabe 8497 adbd
00000140: c8e2 07be db3c 813f c667 da3e 092d afbd
00000150: 84e4 32bf 3645 f1be a746 a7be ac05 95be
00000160: da37 14bf 4d90 0cbe
0.15875365 -0.18152073 -0.38052124 -0.32259294 -0.02802994 0.17128858 -0.10879882 -0.57559305
-0.0845088 -1.5409981 0.44063985 -0.39240742 -0.33940685 0.47601557 0.0017114633 -0.029748604
-0.22480302 -0.484472 -0.11711558 0.031069726 0.21166687 0.38105476 0.7249571 -0.26753482
-0.19120038 -0.44979134 -0.44928357 -0.1964414 -0.3385387 -0.3628723 -0.8681184 0.14947534
-1.3584546 -0.1966721 -0.8384971 -0.18165569 0.7750229 -0.67642725 -0.0800086 -1.3496794
2.1227927 -0.19889277 -0.43821427 1.0511347 0.22466789 0.16154528 -0.03358385 -0.46867335
-0.19099031 -0.05141732 0.9764397 0.5462585 1.066949 -1.0129565 -0.92930996 -0.1595442
-0.6938605 -0.09276525 -0.20864737 -0.3968894 0.08000459 -0.0016284883 -1.3401046 -0.07236497
-0.254178 0.14931256 0.7058939 -0.78460974 -1.1068431 -0.60751253 0.5122787 -0.21215011
-0.93688965 1.0099144 0.90332204 -0.07132831 -0.41990605 0.10570907 -0.45866716 -0.08476165
-0.13270104 1.0096697 0.42657298 -0.08553512 -0.6987994 -0.47123116 -0.3267109 -0.2910589
-0.5789772 -0.13726921

fc2.bias f4 [3]
00000000: 9d67 4dbd ed3e 76bd 24ee 38be
-0.05014764 -0.060118604 -0.18059593

exp_avg f4 [30, 5]
00000000: 4852 ceba 7bf8 77ba 634f 2eba c24c 803a
00000010: c24c 80ba 0000 0000 0000 0000 0000 0000
00000020: 0000 0000 0000 0000 4842 1eb7 667f 7cb8
00000030: 78b6 08b8 7a1b 94ba 7a1b 943a 0285 34ba
00000040: 0d45 c6b9 9451 12ba 9914 34b9 9914 3439
00000050: 98fe 4eba 3185 9bba e2f5 19ba ca74 da3a
00000060: ca74 daba 0000 0000 0000 0000 0000 0000
00000070: 0000 0000 0000 0000 1e94 dcb8 2c6b 163a
00000080: 34ac 60ba 4023 e7ba 4023 e73a 98b7 f9b8
00000090: 1449 8e3a 7e1c 51ba ad27 b0ba ad27 b03a
000000a0: 990a 2aba c262 f0ba dabe fdb9 4ba7 bb3a
000000b0: 4ba7 bbba 9d5d 8538 a760 4239 45ef 87b9
000000c0: 6275 e53a 6275 e5ba f589 923b efa4 843b
000000d0: aa74 b03b 22f0 beb9 22f0 be39 114e 6bba
000000e0: c499 06ba e73b 14ba 32d9 5db8 32d9 5d38
000000f0: c11c d2ba 4590 7eb9 81c6 c0b9 99e6 0cba
00000100: 99e6 0c3a 6732 b537 a650 adb7 4e4d 663a
00000110: c644 6cba c644 6c3a 7352 ae3a e2c4 753a
00000120: 0019 2ab9 4296 96ba 4296 963a 0000 0000
00000130: 0000 0000 0000 0000 0000 0000 0000 0000
00000140: 979c 35ba 3736 e6b9 64a7 a5b8 63f0 b139
00000150: 63f0 b1b9 762d a3ba 9c4a 54ba 1b29 beba
00000160: 7424 76ba 7424 763a 2cdf 8dba d5e7 27ba
00000170: 9280 bab9 b5e6 c239 b5e6 c2b9 0000 0000
00000180: 0000 0000 0400 0000 0400 0000 0400 0080
00000190: 4bee 943a a04f 20b9 b791 723a 4eee 69ba
000001a0: 4eee 693a 2ffb 543b 7b2a 5f3a e944 213b
000001b0: 684d 8439 684d 84b9 dc9f 9e39 87ad 60b9
000001c0: 1563 593a 2d08 d83a 2d08 d8ba f219 2fbb
000001d0: 104d b7ba 9c9e 15bb 59aa f4b9 59aa f439
000001e0: 3a14 f2b9 d566 76ba 8e46 a6b9 6848 283b
000001f0: 6848 28bb 49b2 96ba 3c50 35ba 811b edb9
00000200: e4fb 6439 e4fb 64b9 cbb3 14bb d0bd a2ba
00000210: 334a d6ba e69d 2db9 e69d 2d39 e883 2dba
00000220: 53ae d0b9 d23f 68b9 863e 4039 863e 40b9
00000230: f44d 98ba 25dc f639 6851 b1b9 3c02 d8b9
00000240: 3c02 d839 59d8 a6ba 423f 35ba f683 82ba
00000250: aed4 59b9 aed4 5939
-0.0015741074 -0.0009459329 -0.0006649403 0.0009788501 -0.0009788501 0.0 0.0 0.0
0.0 0.0 -9.432966e-06 -6.020013e-05 -3.2594864e-05 -0.0011299693 0.0011299693 -0.0006886275
-0.0003781695 -0.0005581614 -0.00017173811 0.00017173811 -0.0007896214 -0.0011865256 -0.0005873126 0.0016666886
-0.0016666886 0.0 0.0 0.0 0.0 0.0 -0.000105180065 0.0005738016
-0.0008570582 -0.0017634407 0.0017634407 -0.00011907442 0.0010855519 -0.0007976963 -0.0013439559 0.0013439559
-0.00064865645 -0.0018339979 -0.00048398116 0.0014316825 -0.0014316825 6.359371e-05 0.00018537288 -0.00025927476
0.0017506296 -0.0017506296 0.004472012 0.004047982 0.005385001 -0.00036418537 0.00036418537 -0.00089761714
-0.0005134607 -0.0005654678 -5.2892785e-05 5.2892785e-05 -0.0016030298 -0.00024277072 -0.0003676899 -0.0005374938
0.0005374938 2.1600352e-05 -2.0660762e-05 0.0008785323 -0.00090129336 0.00090129336 0.0013299718 0.0009375346
-0.00016221777 -0.0011488872 0.0011488872 0.0 0.0 0.0 0.0 0.0
-0.0006927936 -0.00043909412 -7.898992e-05 0.00033939173 -0.00033939173 -0.0012449462 -0.0008098276 -0.00145081
-0.0009389587 0.0009389587 -0.0010823957 -0.000640509 -0.00035572477 0.00037174454 -0.00037174454 0.0
0.0 6e-45 6e-45 -6e-45 0.0011362521 -0.00015288452 0.00092532806 -0.0008923755
0.0008923755 0.003249835 0.0008513105 0.0024607724 0.00025234674 -0.00025234674 0.00030255213 -0.00021426949
0.00082926574 0.0016481929 -0.0016481929 -0.0026718345 -0.0013984758 -0.0022830134 -0.00046666226 0.00046666226
-0.00046172907 -0.00093994784 -0.00031714555 0.0025677923 -0.0025677923 -0.0011497225 -0.0006916558 -0.00045224655
0.00021837611 -0.00021837611 -0.0022690173 -0.0012416188 -0.0016349017 -0.00016557387 0.00016557387 -0.0006619082
-0.00039802733 -0.00022149019 0.00018333839 -0.00018333839 -0.0011619912 0.00047084797 -0.00033820723 -0.00041200395
0.00041200395 -0.0012729272 -0.0006914028 -0.000995754 -0.00020773962 0.00020773962

exp_avg_sq f4 [30, 5]
00000000: 4268 9138 3fd2 3b38 424a fc38 08f3 3a38
00000010: 08f3 3a38 0000 0000 0000 0000 0000 0000
00000020: 0000 0000 0000 0000 27aa 3835 3a29 4e33
00000030: 04e8 8337 5cf7 5938 5cf7 5938 99dd 8f36
00000040: 25d9 5236 932d 1737 ccf4 9136 ccf4 9136
00000050: 08bd 2d37 7cfe 8137 c309 4738 fe22 0438
00000060: fe22 0438 0000 0000 0000 0000 0000 0000
00000070: 0000 0000 0000 0000 af34 e036 6741 1d38
00000080: 085e 9238 2938 3e38 2938 3e38 4b12 3138
00000090: d52e a038 b5c9 9338 320c 2e38 320c 2e38
000000a0: 5d14 4837 1c1e e237 86d4 2a37 c98b e337
000000b0: c98b e337 ef38 3537 27b6 8137 ffcb 5837
000000c0: 9ae9 9838 9ae9 9838 48e8 ab39 f1e3 9139
000000d0: 4a18 c939 138f 1a39 138f 1a39 58e3 c536
000000e0: 80eb 0837 820e 4237 a6d5 e536 a6d5 e536
000000f0: 1d50 3338 c7ce df38 c02c a838 c1c0 2b38
00000100: c1c0 2b38 8e3b ff32 03ab 2d34 cfba 4938
00000110: b28c 8f38 b28c 8f38 8fe2 0238 ba7d e838
00000120: c311 4338 6701 5e38 6701 5e38 0000 0000
00000130: 0000 0000 0000 0000 0000 0000 0000 0000
00000140: 01ee e936 b8ed bf37 6be4 2937 9f89 3137
00000150: 9f89 3137 1660 c537 911b 8037 1fac 4738
00000160: 1a3a 7937 1a3a 7937 3a7a 4237 7801 f537
00000170: 42f4 a237 1cca 8137 1cca 8137 0000 0000
00000180: 0000 0000 af68 0920 1681 ef1f 1681 ef1f
00000190: 809e 9738 7a1e 2638 b7e1 3039 70ee 4b38
000001a0: 70ee 4b38 c6eb 2438 94d1 9738 c0ad 3738
000001b0: 8c17 6838 8c17 6838 d447 2c37 3da9 6b36
000001c0: 1aa1 f138 7cf7 3438 7cf7 3438 b716 dd38
000001d0: 735d 8438 5aae 6a39 9e19 ca38 9e19 ca38
000001e0: 63ac 6737 681c c537 8401 9237 9aa8 1738
000001f0: 9aa8 1738 036d 4137 ea49 0338 54b0 9c37
00000200: 0cd1 8937 0cd1 8937 25f1 5e38 a718 3538
00000210: 7d22 e938 88c6 5838 88c6 5838 ed2d 8e36
00000220: 6d59 4837 db59 e236 48ce ca36 48ce ca36
00000230: 0c9e 8e37 94d6 0e38 d00c ee37 8ebd 9437
00000240: 8ebd 9437 e12a 8e37 3018 4d37 d5d5 1538
00000250: 8775 8937 8775 8937
6.933558e-05 4.478008e-05 0.00012030128 4.4572196e-05 4.4572196e-05 0.0 0.0 0.0
0.0 0.0 6.8792946e-07 4.8000608e-08 1.5724458e-05 5.1967203e-05 5.1967203e-05 4.2875295e-06
3.1418833e-06 9.010912e-06 4.349835e-06 4.349835e-06 1.0355616e-05 1.5496502e-05 4.745439e-05 3.150384e-05
3.150384e-05 0.0 0.0 0.0 0.0 0.0 6.6818534e-06 3.7492628e-05
6.979337e-05 4.5351833e-05 4.5351833e-05 4.2217125e-05 7.638118e-05 7.047077e-05 4.149619e-05 4.149619e-05
1.192567e-05 2.695532e-05 1.0182272e-05 2.7125601e-05 2.7125601e-05 1.0801697e-05 1.546282e-05 1.29221e-05
7.2914365e-05 7.2914365e-05 0.00032788725 0.00027826385 0.00038355804 0.00014739884 0.00014739884 5.897524e-06
8.161063e-06 1.1566679e-05 6.849604e-06 6.849604e-06 4.2751537e-05 0.00010671984 8.0191996e-05 4.0949093e-05
4.0949093e-05 2.971299e-08 1.6174094e-07 4.8096113e-05 6.844978e-05 6.844978e-05 3.1205414e-05 0.000110860405
4.6508165e-05 5.293023e-05 5.293023e-05 0.0 0.0 0.0 0.0 0.0
6.9716484e-06 2.287967e-05 1.0126368e-05 1.05820645e-05 1.05820645e-05 2.3528974e-05 1.5271626e-05 4.7605598e-05
1.4855084e-05 1.4855084e-05 1.1591759e-05 2.920696e-05 1.9425646e-05 1.5472113e-05 1.5472113e-05 0.0
0.0 1.1638988e-19 1.0143399e-19 1.0143399e-19 7.229764e-05 3.9605868e-05 0.00016868753 4.8621034e-05
4.8621034e-05 3.9320228e-05 7.239278e-05 4.3792417e-05 5.533504e-05 5.533504e-05 1.0268723e-05 3.5116238e-06
0.00011521783 4.3145832e-05 4.3145832e-05 0.00010542332 6.311657e-05 0.0002238093 9.636882e-05 9.636882e-05
1.380881e-05 2.3497458e-05 1.7405262e-05 3.6158228e-05 3.6158228e-05 1.1529078e-05 3.130167e-05 1.8678758e-05
1.6429018e-05 1.6429018e-05 5.3153508e-05 4.3176722e-05 0.0001111673 5.168331e-05 5.168331e-05 4.2372762e-06
1.194175e-05 6.7457854e-06 6.0440834e-06 6.0440834e-06 1.7001315e-05 3.405528e-05 2.8377777e-05 1.7731243e-05
1.7731243e-05 1.6947686e-05 1.2224584e-05 3.5723515e-05 1.63864e-05 1.63864e-05

exp_avg f4 [30]
00000000: 0702 c6bb 0000 0000 1ec6 12ba 6993 00bb
00000010: e91c c8bb 0000 0000 485f ef39 44ef 91b9
00000020: c79c 3dbb 5c4d abba 97a6 1a3c bf52 bdba
00000030: 2020 acb9 6cf5 923b 323a 0bbb 0000 0000
00000040: a6b5 a93a 1912 b9bb a871 c0b8 0400 0000
00000050: 2bce 013c 8cd1 5f3a 762b 543b b056 29bc
00000060: 8676 74bb e06f af37 3246 c9bb e46d 1b39
00000070: b84f 493b 992b 79bb
-0.006042722 0.0 -0.000559898 -0.0019619113 -0.006106962 0.0 0.00045656622 -0.00027834822
-0.0028932558 -0.001306932 0.009439132 -0.0014444216 -0.00032830331 0.004484823 -0.0021244404 0.0
0.0012947812 -0.0056479094 -9.1764436e-05 6e-45 0.007922689 0.0008538 0.0032374538 -0.010335609
-0.003730209 2.0913722e-05 -0.006142401 0.0001482289 0.0030717682 -0.003802037

exp_avg_sq f4 [30]
00000000: a0fa cd39 0000 0000 60b3 f738 29eb f037
00000010: e896 9339 0000 0000 44e0 013a 3ca7 2939
00000020: f161 c938 c900 7139 6e9d 173a 81f3 4a38
00000030: 32da c539 d61f 1a3a 1263 f739 0000 0000
00000040: e42d cc38 d07b 0839 096f 0a39 af68 0920
00000050: cb72 1c3a 7047 0a3a e31b a339 0ae7 383a
00000060: 8419 dd38 00df 1039 aa6a c239 0de5 5a38
00000070: 13ae 3139 5102 f138
0.00039287377 0.0 0.00011811289 2.8719734e-05 0.0002815046 0.0 0.00049543777 0.00016179396
9.60267e-05 0.00022983844 0.0005783652 4.8387334e-05 0.00037737336 0.0005879378 0.00047185324 0.0
9.736026e-05 0.00013016094 0.0001320207 1.1638988e-19 0.0005968033 0.0005274927 0.0003111056 0.00070534705
0.00010542854 0.00013815984 0.00037082034 5.218857e-05 0.00016944883 0.00011492207

exp_avg f4 [3, 30]
00000000: 15d8 6039 0000 0000 97c9 9239 be0f ca39
00000010: b8ee 54b9 0000 0000 a5f9 05b9 a95a 2e3a
00000020: 6e9d 09b9 7a50 05b9 1ba5 7539 4cfd 2c3a
00000030: 8027 5e3a da42 6539 e479 b038 0000 0000
00000040: 6b67 6f3a d53c 993a 67f2 383a 0000 0000
00000050: 909e 50b7 c2a4 ce39 de87 173a 407e 4b3a
00000060: fe67 99b8 bc08 7b3a ea5e 153a dd0d 363a
00000070: 4af2 423a 27c5 123a bb68 a73b 0000 0000
00000080: c7ab 893a a2de 8e3b df4a 9b3b 0000 0000
00000090: c00b d63b fbe2 2a3b 56f7 e23a f9c0 b73a
000000a0: 55fa 093a 7a03 a93b 087a 9e3b d46c 133b
000000b0: a13c 8a3b 0000 0000 951e f43b 2e19 f23b
000000c0: bcc7 a43b 0400 0080 40e5 073c a050 7f3b
000000d0: f1fd fe3a 1cc8 d43b 8575 863a 3ec4 f23b
000000e0: 5389 ab3b 80aa 963b f6c6 8f3b 0bfd a23b
000000f0: 2123 243b 0000 0000 90ad d2b9 03c2 37ba
00000100: 9399 16ba 0000 0000 f06f 78bb ce5f 27ba
00000110: 9d10 a03a 54c4 0a3a a6a0 cb3a 4316 5bba
00000120: cc34 9fba 461b b2ba 5d3a feba 0000 0000
00000130: a468 10bb a4a5 97ba 6cf8 27ba 0000 0000
00000140: 6f5b f0ba 6657 2bbb 39ca 12ba f4f3 a8b9
00000150: ca96 713a 2b78 9ab9 2067 8e38 18b6 79b9
00000160: c44f 4dba f10b 043a
0.00021442802 0.0 0.00027997486 0.0003854017 -0.00020306825 0.0 -0.00012776868 0.00066510827
-0.00013123985 -0.00012713848 0.00023426527 0.00065990235 0.0008474514 0.00021864046 8.415038e-05 0.0
0.0009132537 0.0011691103 0.0007055164 0.0 -1.2434684e-05 0.00039414136 0.00057804387 0.0007762648
-7.3149786e-05 0.00095761917 0.0005698042 0.0006944815 0.00074366166 0.0005598836 0.0051089204 0.0
0.0010503464 0.004360036 0.00473915 0.0 0.0065321624 0.0026075232 0.0017316143 0.0014019302
0.00052634376 0.005157885 0.0048363246 0.0022495287 0.0042186533 0.0 0.0074499347 0.0073882556
0.005028693 -6e-45 0.008294404 0.0038957968 0.0019454343 0.0064935815 0.0010258412 0.007408648
0.005234876 0.004597962 0.0043877317 0.0049740127 0.0025045353 0.0 -0.00040183635 -0.0007009806
-0.000574493 0.0 -0.0037908517 -0.00063848204 0.0012211982 0.00052935374 0.0015535548 -0.0008357504
-0.0012146472 -0.001358845 -0.0019396056 0.0 -0.0022035027 -0.001156975 -0.0006407562 0.0
-0.0018337796 -0.0026144623 -0.00055995915 -0.00032225216 0.000921589 -0.000294627 6.790296e-05 -0.00023814326
-0.00078320154 0.000503718

exp_avg_sq f4 [3, 30]
00000000: dd38 a236 0000 0000 59ab a935 d52d 0536
00000010: 49dc 2c36 0000 0000 9f60 5436 7fa2 0637
00000020: 21a3 4b35 4cd0 3235 2e29 9e35 c054 ba36
00000030: c0e5 5d37 ba6a 1e35 9e32 2a35 0000 0000
00000040: 93b6 2c37 5ba0 9637 ab8e eb36 0000 0000
00000050: 71cd fa36 3f27 0736 ddc9 b936 9889 0637
00000060: 60a5 8b34 7946 5437 a9d9 a936 3176 cc36
00000070: 7e95 e736 ac5b ae36 8567 b239 0000 0000
00000080: 8a89 1b37 4b92 fd38 3811 3039 0000 0000
00000090: eaf2 b739 9906 b838 682e e937 cadc 8d37
000000a0: 8e5d a438 efda 8f39 db5d 4f39 c1d9 ea37
000000b0: 1cd5 c638 0000 0000 277c 183a 06f6 c739
000000c0: 2e61 c539 939d d41c 46dc 4b3a 16de 7e38
000000d0: 6827 8338 cada bc39 b856 1a37 cb98 343a
000000e0: a54a 8739 80ac 9739 df85 8439 75a8 8639
000000f0: 2a5c 8e39 0000 0000 a57a 3436 231c 2139
00000100: 5567 dd38 0000 0000 41e1 8439 8843 c338
00000110: eeca d837 3c17 4237 fb51 bf38 8bb5 8239
00000120: 9e12 0539 e8d7 8c37 d5a0 8f39 0000 0000
00000130: 00c0 6339 832b c139 ba80 6839 0000 0000
00000140: e70a e239 a5d3 c538 bad4 d937 3efa 073a
00000150: 0842 6237 394b b339 c51c b239 9f18 e538
00000160: 2ea9 6e38 3dce 9239
4.834596e-06 0.0 1.264135e-06 1.9845222e-06 2.575822e-06 0.0 3.1646703e-06 8.0248565e-06
7.5860777e-07 6.661328e-07 1.1783902e-06 5.553098e-06 1.3226119e-05 5.9014894e-07 6.340359e-07 0.0
1.0294508e-05 1.7956065e-05 7.0201545e-06 0.0 7.474497e-06 2.0139412e-06 5.5369296e-06 8.019058e-06
2.6011094e-07 1.2652593e-05 5.0619315e-06 6.093433e-06 6.9017397e-06 5.196276e-06 0.00034027934 0.0
9.270743e-06 0.00012091229 0.00016791082 0.0 0.00035085465 8.7750326e-05 2.7797374e-05 1.6911323e-05
7.837555e-05 0.00027438204 0.00019776022 2.7996373e-05 9.4810704e-05 0.0 0.000581684 0.0003813954
0.00037647173 1.4069715e-21 0.0007776659 6.0765153e-05 6.253907e-05 0.00036021165 9.199306e-06 0.0006889223
0.0002580482 0.00028929487 0.00025276744 0.00025683982 0.00027153018 0.0 2.6893479e-06 0.00015364638
0.00010557348 0.0 0.0002534483 9.310903e-05 2.5843703e-05 1.1568711e-05 9.12286e-05 0.00024930792
0.00012690804 1.678984e-05 0.00027394915 0.0 0.00021719933 0.00036844247 0.00022173199 0.0
0.00043114202 9.433114e-05 2.5967474e-05 0.00051871303 1.3486024e-05 0.00034197586 0.0003397224 0.00010924157
5.6901183e-05 0.0002800095

exp_avg f4 [3]
00000000: cbe8 513a db09 2a3c a3e5 8bbb
0.0008007406 0.010378326 -0.004269318

exp_avg_sq f4 [3]
00000000: 0ffe 0637 1c0a 353a 7248 173a
8.046175e-06 0.00069061085 0.0005770988
